chess_eval_model.pth (torch, 69346 bytes, 5 tensors)

layers.0.weight f4 [128, 64]
000000 ae 65 9e 3d 0f 7f 83 3d fe 0e 89 3d 09 da e4 bb
       0.077342376 0.06420719 0.06692313 -0.0069839996
000010 b4 bd 89 bd d2 4f 95 3d a9 b4 b8 bd 50 21 a8 bd
       -0.06725636 0.07290615 -0.09018833 -0.08209479
000020 eb 52 74 bd e7 5f 9e bd 6e 7f db bd 74 a1 f1 3d
       -0.05964939 -0.07733136 -0.10717665 0.11798373
000030 60 43 a4 bd 31 0d 93 bd 07 ba e6 3d f3 5a fa 3d
       -0.08020663 -0.071802504 0.11265951 0.122243784
000040 ea 7f ed 3d 99 04 6f bd 20 40 ae bd 94 aa 1c bd
       0.11596663 -0.058353994 -0.085083246 -0.038248613
000050 1b 3d a5 3d 55 5e 5c 3d fe e7 e3 bc 4e 41 55 3d
       0.080682956 0.0538009 -0.027820583 0.052064233
000060 5d 25 81 bc 44 02 9e 3d de e4 ae 3d 22 7e e7 bd
       -0.015764887 0.07715276 0.08539747 -0.11303355
000070 b7 5b a9 3d a2 99 ce 3d 59 4b 47 3d b0 67 02 3d
       0.08269446 0.10087897 0.04865584 0.031837165
000080 74 e1 ba bd b7 ba 68 3d 6a ee 20 3c aa 84 f4 3c
       -0.09125033 0.05681869 0.009822467 0.029848415
000090 8e 3d 91 3d db d7 03 3b 31 d0 1d 3d b8 39 89 bd
       0.07091819 0.0020117674 0.038528625 -0.06700462
0000a0 20 60 e3 3d 35 b5 aa bc f2 63 03 be fa 63 c0 3d
       0.11102319 -0.02083836 -0.12831095 0.09394069
0000b0 14 bc bf 39 d3 8c db 3d 96 30 ab 3c 4d 1f a3 bb
       0.00036570488 0.107202195 0.020897191 -0.0049780966
0000c0 13 8e 36 bc b3 d5 8e 3d dd a4 92 3d c2 92 f9 3c
       -0.011142272 0.06974354 0.071603514 0.030465487
0000d0 fa 06 1d bb e2 4d 8e bd 0f 2e fe 3d ed d6 a6 bd
       -0.0023960457 -0.06948449 0.12411129 -0.081464626
0000e0 45 f0 db 3d 78 3b f8 3d 5c 8d 03 3c 43 9a 5f bd
       0.10739187 0.12120718 0.008029308 -0.054590475
0000f0 d7 da 95 3d 02 ee 80 bd ea 23 04 be 52 21 2f 3d
       0.07317131 -0.062953964 -0.12904325 0.042756386
000100 99 71 09 3d 5c df c5 3d 9d 57 90 bc c6 79 28 3d
       0.0335556 0.09661743 -0.017619902 0.041131757
000110 c2 f7 de bd 54 5c b6 bd f6 fa b8 bb 11 8e e3 bd
       -0.108871 -0.08904329 -0.0056451513 -0.111110814
000120 3a c6 aa 3c 0c 5c a5 bd f1 69 a7 bd 0f df 29 3d
       0.020846475 -0.08074197 -0.081745036 0.04147249
000130 fe 71 42 bd f7 c2 cd bd e6 31 e2 bd 01 43 e1 3d
       -0.047471993 -0.10046952 -0.110446736 0.10999108
000140 e7 92 a4 3d 99 0c 0d bd 60 c3 a9 bd 2c 3a 87 bd
       0.08035832 -0.034435842 -0.08289218 -0.06602892
000150 22 8e 37 bd a9 2f 1b 3b 34 c3 ba bd 2b 2a 62 3d
       -0.044813283 0.002367953 -0.09119263 0.055215996
000160 77 20 bb bd cb c1 6b bd fb b4 00 3e 26 32 ab 3d
       -0.091370516 -0.057557862 0.12569039 0.083591744
000170 85 36 2f 3d 6f af dc bd 99 c3 9b ba fd 21 bc bd
       0.042776603 -0.10775649 -0.0011883854 -0.0918617
000180 bd 0b 8f 3d 08 cb ae 3d 32 72 d4 3d bc 47 ce bd
       0.06984661 0.08534819 0.103733435 -0.10072276
000190 9f b0 94 3d 8f 76 b9 bd 1d bc 7d 3d 29 4e ba 3c
       0.0726025 -0.090558164 0.061946977 0.022742348
0001a0 46 fa 17 3d 48 de 58 bd 99 5d 87 bb e7 b3 92 3d
       0.037103914 -0.05294636 -0.0041310308 0.0716322
0001b0 74 27 03 bd 59 35 81 3d 1b 48 29 3b 31 6c b9 bd
       -0.032020047 0.063090034 0.0025830332 -0.09053839
0001c0 79 df 4d 3d aa 90 8d bd c9 19 4e 3d dd 03 3c bc
       0.05026195 -0.06912358 0.05031756 -0.01147553
0001d0 87 4c ad 3d 84 9e d0 3d 1b 45 07 be 4a 34 b1 bc
       0.08461862 0.101864845 -0.13209955 -0.021631379
0001e0 44 50 3a 3d 92 8e 19 3c ac 5d 52 3d e9 b8 c4 3d
       0.045486704 0.00937237 0.051358864 0.09605581
0001f0 68 86 9e 3c 06 1a 04 be 01 62 b1 bd d2 7d a2 3d
       0.0193512 -0.12900552 -0.08661271 0.079341546
000200 9c 0e 01 3d 18 76 8d 3d b0 f3 9a bd 69 49 b3 3d
       0.031508073 0.0690729 -0.07566011 0.08754236
000210 63 bd d5 3d 8e 13 fa bb 74 8a 3d bd be 18 14 bd
       0.10436513 -0.0076317256 -0.046274617 -0.03615641
000220 62 4c b4 3d 57 c8 f0 3c d1 9e 73 3d a2 8c 8e 3d
       0.08803631 0.029392404 0.05947763 0.06960417
000230 67 b1 b4 3d 8f b4 70 bd 2e 92 61 3a 75 2d 1c 3d
       0.08822899 -0.058765944 0.00086048513 0.03812929
000240 9d 89 02 be 3a 96 da bd 28 fc b2 b8 6d c2 02 be
       -0.12747808 -0.10673185 -8.534669e-05 -0.1276948
000250 f7 6d 9e 3d 60 72 df 3d bc 9f 71 bc 09 d5 02 be
       0.07735818 0.10910487 -0.014747556 -0.12776579
000260 28 75 d4 3c 3b 30 1f bc b9 f5 62 3d 8b 96 c3 3d
       0.02593477 -0.009716089 0.05541012 0.09550198
000270 7c 13 17 b9 02 32 e5 3d 1f 91 b7 3d 6e 9d cc bd
       -0.0001440774 0.11191179 0.089632265 -0.09990965
000280 07 1c e5 bd cf 8a f2 bd 23 5d b5 3d 31 5e 3a 3d
       -0.111869864 -0.11842882 0.08855655 0.045499984
000290 a6 64 e2 3d 13 56 d0 3d 28 43 b2 bb 19 6c 26 bc
       0.110543534 0.10172667 -0.0054401346 -0.010157608
0002a0 53 c8 13 bc b6 02 7d 3d a2 30 8f bb c0 76 84 bd
       -0.009019929 0.061770163 -0.004369811 -0.06467962
0002b0 32 4c cb 3c d9 bf 33 bd 8b 1b c7 bc 28 33 88 bd
       0.024816606 -0.043884132 -0.024305126 -0.06650382
0002c0 b1 2a ba bd 2c 61 c0 3d 48 ce a3 bc 73 28 d3 bc
       -0.09090174 0.09393534 -0.019995824 -0.025776124
0002d0 ea 0c 82 bc dd 8a 5d 3d b1 0a cc 3d 19 b6 e1 3d
       -0.015875299 0.05408751 0.09962977 0.110210605
0002e0 81 57 22 bc bd ae e4 3d 4d 35 fc 3d 39 da a5 3d
       -0.009908558 0.11166141 0.12314854 0.08098263
0002f0 de 71 cd 3d c4 1c 89 3d 59 61 c2 3c c9 fb bc bd
       0.10031484 0.0669494 0.02372806 -0.09227712
000300 a6 79 aa 3d bf ab a8 3d e7 81 5a bd b4 c5 63 3b
       0.08323984 0.08235883 -0.05334654 0.0034755291
000310 1a 5c 05 bd ad d4 04 3e 59 13 a4 bc 34 d4 96 3d
       -0.032558538 0.12971754 -0.020028757 0.07364693
000320 c5 3a a6 3d c5 09 10 bd d0 14 21 bd 2d 74 f1 3d
       0.08116678 -0.035165567 -0.03932649 0.11789737
000330 7c f4 7e 3d b0 ab 97 bd 27 47 c1 bd ab a4 d4 bd
       0.062244877 -0.07405794 -0.09437399 -0.103829704
000340 21 8d 8f 3c 2f fa 97 bc 1b ea 5d bd a9 ce a7 bd
       0.01752335 -0.018551914 -0.05417834 -0.08193714
000350 88 2a 92 bd 68 87 13 3c 43 fd 3d 3d 3e da 2c 3d
       -0.071370184 0.009004451 0.046384107 0.04220032
000360 0e e3 04 3e 2a 85 9d 3d fb ac e3 3d 95 f7 f2 bc
       0.1297724 0.07691415 0.11116978 -0.029659072
000370 85 9f c9 bb 29 6d 85 3d 05 1a 64 bd a5 c0 c8 3b
       -0.0061530494 0.06514961 -0.055688877 0.0061264806
000380 97 7f e5 bd ea 22 21 3c f7 85 49 bd ac cf d7 bc
       -0.112059765 0.009834984 -0.049200024 -0.026344143
000390 0a 69 6b 3d 77 62 ca bd 8a 3f 0d bd f8 14 a3 bc
       0.05747322 -0.09882062 -0.034484424 -0.01990746
0003a0 97 dc c1 bd 5b c1 6c bd 7e ec 95 bd 42 61 dd 3d
       -0.09465902 -0.057801586 -0.07320498 0.10809566
0003b0 a9 95 cc 3d c3 79 9a 3d 7f ca 54 bd bc 10 8b 3d
       0.09989483 0.075427555 -0.051950928 0.06790301
0003c0 ab 45 06 bd c1 3d 21 bd 90 a7 48 3d 58 f3 df 3d
       -0.032781284 -0.039365534 0.048987925 0.10935086
0003d0 50 7e 52 bd 8b b9 51 3c b7 c6 38 3d fc ef 54 bd
       -0.051389992 0.012800585 0.045111384 -0.05198668
0003e0 f3 49 ba 3d ec e1 fb bb e1 5c 9c bb 35 5f ce 3c
       0.09096136 -0.007686844 -0.004771814 0.025191883
0003f0 3a e9 80 bd 74 53 a2 3d 95 be ce bd e0 f2 f1 3c
       -0.062944844 0.07926074 -0.100949444 0.029534757

layers.0.bias f4 [128]
000000 10 72 e0 bd 64 2d e1 3d 56 64 94 3d ef a6 b7 bd
       -0.10959256 0.10994986 0.072457 -0.08967387
000010 76 e4 f1 bd 49 92 50 bd 51 97 9d 3d b0 e1 2a 3d
       -0.118111536 -0.05092076 0.07694877 0.04171914
000020 5c 0a 39 bc 8e 18 b8 ba 6c a6 d3 3d 29 90 ce bc
       -0.011293974 -0.0014045404 0.10334477 -0.025215225
000030 f6 aa a2 3b 43 42 e2 3d 30 0b a2 3d 09 09 8a bc
       0.004964228 0.11047795 0.0791229 -0.016850011
000040 23 d5 85 bd 3f b3 21 3d 84 0a a6 3d 93 70 f0 3d
       -0.06534793 0.039477583 0.081074744 0.11740222
000050 a5 30 00 be d9 d7 e3 3d 60 13 34 3d d7 94 87 bd
       -0.12518556 0.11125154 0.04396379 -0.06620186
000060 25 f2 6d 3d 95 97 70 3c 5e 6a 53 bd 64 23 eb bd
       0.058092255 0.0146845775 -0.05161511 -0.114813596
000070 56 a5 60 bb c6 fa 98 bd 55 8e e7 bd 08 e8 01 3e
       -0.0034278235 -0.07469706 -0.113064446 0.12686169
000080 b4 dc a6 3d bf 23 81 bd 3c 7c b0 3c eb d9 ff bd
       0.081475645 -0.06305646 0.021543615 -0.124927364
000090 a1 a5 81 3d b0 eb e1 3d 2d 63 a8 bd 3f 75 90 bd
       0.06330419 0.11031282 -0.08222041 -0.07053613
0000a0 7c 8c f5 b9 80 9e 74 bd aa 55 7d 3d 3b 4a 9b bc
       -0.0004683471 -0.05972147 0.061849274 -0.018956294
0000b0 4b ba 93 3d a0 2b ac bd 81 39 c5 bd 28 08 41 3c
       0.07213267 -0.08406758 -0.096301086 0.01178173
0000c0 7a b7 2a 3d 81 bd f7 3d d2 96 e8 bd 75 83 af 3d
       0.041678883 0.12096692 -0.11356892 0.08569995
0000d0 50 0b ee bd ec b7 14 bc d6 8c c8 3d 35 1f a0 bd
       -0.116232514 -0.0090770535 0.09792487 -0.07818452
0000e0 2b c2 bc bd 03 de a3 3d 39 31 a8 3c 97 e0 8c bc
       -0.09216722 0.0800133 0.020531284 -0.017196937
0000f0 95 ee e0 bd 40 db dd bd f2 a3 f2 bd b3 4c e7 bd
       -0.10983006 -0.10832834 -0.11847676 -0.11293926
000100 8e 34 6e bd 78 cd c9 bd 59 38 c0 bd 9c 12 a3 bd
       -0.05815559 -0.09853643 -0.093857475 -0.07962534
000110 90 bb eb bd 18 20 d4 3d e8 02 1a 3c ba c7 e3 3d
       -0.11510384 0.10357684 0.009400107 0.11122079
000120 e0 2f 63 bd f1 d1 59 bd 61 65 b9 3d bb 76 07 3e
       -0.05546558 -0.05317873 0.090525396 0.13228886
000130 10 0a f6 3b ae a7 64 3c 22 c5 09 3d eb cd d3 3d
       0.0075085238 0.013955994 0.033635266 0.1034201
000140 09 28 2a bd 7e ce 8f 3c 8d b9 21 bd d8 b6 a6 bd
       -0.041542087 0.017554518 -0.039483596 -0.081403434
000150 ae 6b 28 bd 29 6b 7b 3d 52 fe 6c bd 81 b8 28 3d
       -0.041118316 0.061381493 -0.057859726 0.04119158
000160 31 94 cb 3d e1 e1 f6 bd 32 74 d2 bd 45 f6 79 3d
       0.09940375 -0.12054802 -0.10276069 0.061025877
000170 96 7d c9 3d 00 3a 91 3c d9 87 3b 3d 51 7d bc 3d
       0.09838407 0.017727852 0.04578385 0.0920359
000180 44 60 9d bd d0 42 b9 3c d6 75 e5 3d c8 da 4a 3c
       -0.07684377 0.022614866 0.11204116 0.012381263
000190 58 26 bf bd 58 b2 a2 bd d0 d8 61 bc fa 2b 89 bd
       -0.09333485 -0.079441726 -0.013784602 -0.06697841
0001a0 3d b0 05 be 6d 14 d7 3d e2 a2 a4 bd 2b f4 ab bb
       -0.13055511 0.10501943 -0.0803888 -0.005247613
0001b0 94 eb fc 3c 70 ea c4 3d b9 6b 07 3e da 08 c6 bd
       0.030874051 0.09615028 0.13224687 -0.09669657
0001c0 8e 50 c0 bd ff ba 93 bc 0d fa e0 bd be f9 c2 bc
       -0.093903646 -0.018033503 -0.109851934 -0.023800727
0001d0 01 9b 97 bd 68 8b cf bc 34 37 98 3d 14 73 e0 3d
       -0.074026115 -0.025335029 0.07432404 0.109594494
0001e0 07 f8 2b bc 01 f9 d5 bd 6e dc 91 3d 51 e1 78 3d
       -0.010496146 -0.10447884 0.07122122 0.060761753
0001f0 53 0e 01 3e 1c 48 ff bd 51 e2 b1 bd 74 5b 21 bd
       0.1260312 -0.12464926 -0.086857446 -0.039393857

layers.2.weight f4 [64, 128]
000000 81 64 95 bd 95 5e 8f 3d c1 55 02 bc 2d 79 76 bd
       -0.0729456 0.07000462 -0.007955016 -0.060174156
000010 dc fd a2 3d 46 0d 62 bc 67 e1 15 bd 0a d4 bb 3d
       0.07958576 -0.01379711 -0.036591914 0.091713026
000020 00 dc 30 3d 3a 70 42 3d 77 7f 9d bd a4 b0 8c 3d
       0.04317856 0.04747031 -0.076903276 0.06869629
000030 20 c5 c6 bc b0 27 a4 39 e0 17 ec bc 34 69 1c bd
       -0.024263918 0.00031310087 -0.028819978 -0.038186267
000040 cb 84 7b bd 57 b4 50 3c b3 62 a1 3d 15 97 14 bd
       -0.061405938 0.012738309 0.078801535 -0.036276896
000050 59 54 b4 bc 2c 90 b4 3c 40 f7 62 bd ea 98 92 bd
       -0.022012876 0.022041403 -0.055411577 -0.07158072
000060 36 d2 83 3d 82 b4 9b bd f8 f8 e1 bc 21 fc 92 3d
       0.06436579 -0.076027885 -0.027584538 0.07176996
000070 a5 40 1c bc 9c 9e 31 3d 36 34 50 3d e0 a4 64 bd
       -0.009536897 0.043364152 0.050831042 -0.0558213
000080 10 bd b0 3d 8c 6b 4a bd ec 35 87 3d 42 f3 78 bd
       0.08629811 -0.04941897 0.06602082 -0.060778864
000090 ed db 8d 3d c3 56 82 3d 7e a8 a4 3d 09 84 33 bc
       0.06926713 0.06364205 0.0803995 -0.010956773
0000a0 5c 76 b3 3d cd 3b 54 3c f7 e2 dd 3b f3 5d ac 3d
       0.0876281 0.012953711 0.006771441 0.08416357
0000b0 9f 07 9f bc f6 c5 dc bc 52 69 8f 3d ec 06 b1 3d
       -0.019412814 -0.026949864 0.0700251 0.08643898
0000c0 ba 2e 95 bd 91 8e 5e bd 09 ec c0 bc 88 d6 7a bd
       -0.07284303 -0.05433518 -0.02355005 -0.06123975
0000d0 c0 a1 2d 3b 4b 13 4a 3c 17 a9 00 bd 08 1c 88 bd
       0.0026494116 0.012333701 -0.031411257 -0.066459715
0000e0 b2 3d 91 3d 30 2f 85 bd 71 fb 25 3d fd db 96 3d
       0.070918456 -0.06503141 0.040522996 0.07366178
0000f0 14 82 92 3c c1 e4 bd 3d 3d 68 1c 3d e6 60 3e 3d
       0.017884292 0.09272147 0.038185347 0.04647913
000100 07 32 c6 bc 28 bf 42 3c 45 3e fe bc 50 87 22 bd
       -0.024193777 0.0118863955 -0.031035552 -0.039679825
000110 dd 73 78 3d 19 d4 22 bd 89 74 84 bd 09 cb 50 3d
       0.06065737 -0.039753053 -0.0646754 0.05097488
000120 b8 23 58 bd b2 40 0d bd de 96 9d bd a5 51 76 3d
       -0.05276844 -0.034485526 -0.07694791 0.060136456
000130 ed 72 62 bd 4f b4 ab 3d ac 42 9a 3d e3 03 8f 3d
       -0.055285383 0.083840005 0.07532248 0.06983163
000140 7b 40 d5 3c 18 a6 8a 3b 0d bd 8d 3d 7d 6f 89 3d
       0.026031723 0.0042312257 0.06920824 0.06710718
000150 6c 82 9f bd 77 12 a0 bd 0f cb 00 bd f2 fe 3a bd
       -0.07788548 -0.07816022 -0.03144365 -0.04565329
000160 97 09 5e bd bf c1 2e 3d 2f da 4a 3d 1d fa 5f bd
       -0.054208364 0.04266524 0.049524482 -0.054681886
000170 56 31 7c bc c0 83 77 3d 0e d2 9d bd ae eb 3b bd
       -0.015392622 0.06042838 -0.077060804 -0.04587906
000180 4b 8c 28 3d 46 8f a0 bd ff 15 33 3d 22 dc 2f 3d
       0.04114942 -0.07839827 0.04372215 0.042934544
000190 9d 74 81 3c 39 3f db bc de 79 9d 3c c2 45 86 bc
       0.015802676 -0.026763545 0.01922315 -0.016390685
0001a0 a8 f5 62 bd d2 00 a0 bd 45 78 6b 3d f7 bb 1b 3d
       -0.055410057 -0.078126565 0.057487745 0.038021054
0001b0 8f 70 85 bd 42 74 1d 3c f9 47 c1 3d 09 98 92 3c
       -0.065156095 0.009610238 0.09437556 0.017894762
0001c0 86 b0 26 3d 0b 0d 5a 3d e0 e7 be 3d 09 ce 40 3d
       0.04069569 0.053235095 0.093215704 0.04707149
0001d0 e2 7a 4f bd 62 4f 7d 3d da 75 37 3c 58 61 8b bd
       -0.0506543 0.061843283 0.011197532 -0.06805676
0001e0 bf ae 9e 3d 73 45 11 bd 50 21 09 bc ed 4e 89 bc
       0.07748174 -0.035466623 -0.008369759 -0.016761268
0001f0 ad c7 b7 3d 96 0a dc 3c cf c8 93 3d 8c 6e a5 bd
       0.08973632 0.026860517 0.072160356 -0.08077726
000200 46 5e 96 3d 67 f6 98 3d e1 1e 54 3d e7 90 d7 bb
       0.073422 0.074688725 0.05178726 -0.006578553
000210 89 41 61 bd ae a9 31 3d 10 ab 27 bd 00 33 a0 3d
       -0.05499414 0.04337471 -0.040934622 0.078222275
000220 66 ea b7 bc 28 9e 5b 3d f6 7f 8c bd 6a 2b 0a 3d
       -0.022450637 0.053617626 -0.06860344 0.03373281
000230 34 a8 88 bd ce b5 39 3d 9b 2f 98 bd 9c b1 ec bc
       -0.06672707 0.045339398 -0.07430955 -0.028893284
000240 ab 3e 0b 3d 1e 15 88 bd e0 99 9b 3d 0c 99 59 bc
       0.03399531 -0.06644653 0.07597709 -0.013281118
000250 13 ca 26 3d 1b 42 54 3d 62 0b 93 3d 37 1b 8e bd
       0.040720057 0.051820856 0.071799055 -0.069387846
000260 e2 3b ba bd da 27 25 3d c3 42 9a 3d ce 41 ba 3c
       -0.09093453 0.04032121 0.07532265 0.022736456
000270 81 c0 96 bd 0b a8 65 bd 89 ac c1 3c 95 7a 8d bd
       -0.07360936 -0.05606846 0.023641841 -0.06908146
000280 60 f3 b9 bc d7 d5 33 bd 13 b1 a3 3d 9f 35 d7 bc
       -0.022699058 -0.043905105 0.079927586 -0.026270686
000290 92 ab d8 3c 70 32 1d 3d 1e d1 3c 3c cf 20 a3 3d
       0.026448999 0.03837818 0.011524467 0.07965242
0002a0 3d 8a 49 3c 92 3b 80 3d 13 3d 98 3c 71 ce 72 3d
       0.012301025 0.06261362 0.01858381 0.05927891
0002b0 83 4a b1 bc 74 1c 7d 3d 23 37 a6 bd 66 d5 96 3d
       -0.021641975 0.061794713 -0.08115985 0.07364921
0002c0 6d ee 2b 3d fc 64 32 bd 39 32 1f 3d 27 62 3d bd
       0.041975427 -0.043553337 0.038866255 -0.046236183
0002d0 97 b4 52 3d b9 74 34 bd ef 40 9a 3d 39 0e 42 3d
       0.051441755 -0.044056628 0.07531916 0.047376845
0002e0 b5 db 61 3d 34 78 60 3d 1d 2c 1c 3d 83 4a 05 3d
       0.05514117 0.054802135 0.038128007 0.032541763
0002f0 75 cf 82 3c e9 6d 92 bc dc 70 14 3d de 51 cd bc
       0.015968064 -0.017874675 0.036240444 -0.025063451
000300 48 8c 8d bd 09 76 9b 3b 3e 86 bc bd 2e aa 96 3c
       -0.06911522 0.0047442955 -0.09205292 0.018391695
000310 7a c1 90 bd 8f 26 f5 bc 10 f5 58 bc 9d e6 fe bc
       -0.07068153 -0.029925613 -0.013242021 -0.031115824
000320 ab bc c2 bd f8 19 62 bd d1 b3 8d 3d b6 9d 1a bd
       -0.09508642 -0.055200547 0.06919063 -0.03774806
000330 a1 54 ba bd 7d 88 88 3a ee e4 0a bd ad b5 60 bc
       -0.09098173 0.0010416653 -0.03390973 -0.01371519
000340 f4 55 38 3c 02 5d 17 3d e4 54 a0 bd aa 2c 40 ba
       0.011250962 0.036953934 -0.078286916 -0.0007330874
000350 60 18 c0 bd 42 a0 a1 bd 55 2d b9 bd 0a 40 a0 3d
       -0.09379649 -0.07891895 -0.090418495 0.078247145
000360 e3 fa f3 3c 5c ac df 3c 98 24 85 bd 25 3b 12 bd
       0.029782718 0.027303867 -0.0650112 -0.035700936
000370 bf 68 a3 3d 82 f4 22 bd 56 53 9c 3d 24 ac db 3c
       0.07978963 -0.039783962 0.076330826 0.026815481
000380 7b 74 b8 bd 9f 96 94 bd 75 a5 c6 bc 44 33 a9 3c
       -0.09006592 -0.07255291 -0.024248818 0.020654328
000390 65 6e 03 3d 2d c5 6e bd 5b c0 84 bd 7d 3a 08 3d
       0.032087702 -0.05829351 -0.064820014 0.033258904
0003a0 c0 eb a1 bd f3 15 85 bc 14 30 0e bd e0 f1 2b bd
       -0.07906294 -0.016245818 -0.03471382 -0.041978717
0003b0 74 39 f0 3b e4 16 e6 39 8e 6c 13 bd 60 ee 9f 3b
       0.0073310677 0.00043886073 -0.035992198 0.0048807114
0003c0 98 fe 21 bd b6 ac 15 bb 88 88 be bc a2 27 9e 3c
       -0.03954944 -0.002283854 -0.023258463 0.019306008
0003d0 0a 4c 86 3d 75 78 06 bd ab 92 c0 bd ac f0 1b bd
       0.06557472 -0.03282972 -0.09402975 -0.03807132
0003e0 74 db 17 3b c3 4b 80 bd 81 0e 0e 3d 06 b6 87 bd
       0.0023171576 -0.062644504 0.0346818 -0.06626515
0003f0 e1 a9 bd bd 44 7d ba bd 68 e4 57 bb 66 d8 85 3a
       -0.092609175 -0.09105924 -0.0032942537 0.0010211586

layers.2.bias f4 [64]
000000 a4 b0 e8 bc 01 2a c2 3c 37 a9 79 3d 3e 7f bf bc
       -0.028404541 0.02370167 0.06095239 -0.023376103
000010 a3 78 9a 3d ff f7 70 bd 5c 17 6d bd 5d 07 c8 bc
       0.07542541 -0.058830258 -0.057883605 -0.024417574
000020 13 46 53 bd 74 84 b2 3d 1e 40 53 bc cc b0 41 bd
       -0.0515805 0.0871667 -0.012893705 -0.047287747
000030 1c e2 89 bc ac 58 cb bc 68 27 9b bc f0 95 6b bd
       -0.01683145 -0.024822555 -0.018939689 -0.05751604
000040 f6 6a bd 3c 2f 3d aa 3d f7 0e 77 bd 52 48 18 bd
       0.023122292 0.08312451 -0.060317006 -0.037178345
000050 fa 8a a0 bd 38 85 0a bc a9 02 aa bc 56 38 9a bd
       -0.07839008 -0.008454613 -0.020753222 -0.075302765
000060 b8 e0 94 bd f1 c4 91 3c ab 44 53 3d 07 29 91 bc
       -0.07269424 0.017794104 0.05157916 -0.017719759
000070 c2 e6 81 bd 45 10 32 3d 96 31 a2 bd 2d 08 d6 bc
       -0.06342842 0.043472547 -0.07919614 -0.026126945
000080 e7 1a 19 3d ae 52 e5 3c e2 ae 20 3d a8 7a 51 3d
       0.03737917 0.027993526 0.03922928 0.051142365
000090 60 a7 c0 3d 8b fc af 3c b1 98 83 bc 6e 44 1e bc
       0.09406924 0.021482727 -0.01606402 -0.00965987
0000a0 85 03 a0 3d 55 be e9 bc 9b dc 21 bd 3e fa b7 bd
       0.07813171 -0.02853314 -0.039517026 -0.08983277
0000b0 b7 a6 ff 39 68 6f 54 bc 0f 5b a1 bd 42 a9 ab bd
       0.00048761602 -0.012966014 -0.07878696 -0.08381893
0000c0 ba e2 85 3c 96 b8 68 3b 13 21 65 3d 74 25 9c 3d
       0.016343463 0.0035510412 0.055939745 0.07624331
0000d0 78 e5 49 bb 5d 8b a1 bc 8c 6a 25 ba e8 a8 a3 bd
       -0.003080694 -0.019719774 -0.0006310127 -0.07991201
0000e0 6c 0d a2 3d 9e f5 92 bd e4 92 8f bd c7 1a 18 bd
       0.07912716 -0.07175754 -0.07010439 -0.037134912
0000f0 71 79 aa 3c c5 45 16 3a cf 6b 1b 3d 72 cd 22 bd
       0.02080986 0.00057324424 0.03794461 -0.03974671

layers.4.weight f4 [1, 64]
000000 3b f9 ce 3d d1 46 d7 bd a0 c3 4a bd ed b8 bb bd
       0.10106131 -0.10511554 -0.04950297 -0.09166131
000010 f0 8e 3b bd 9d 13 64 bd 92 49 94 bd 44 cd 85 3d
       -0.045790613 -0.055682767 -0.07240595 0.06533292
000020 a9 f0 9b bd af ed 44 3c cd 54 c3 3d 3f 2d 55 3c
       -0.07614262 0.012019559 0.09537659 0.013011276
000030 ce 1b 01 3e 48 c9 56 3d 96 03 cb 3d 96 15 7f bd
       0.12608263 0.05243805 0.09912793 -0.062276445
000040 4a 32 e9 3d f1 e5 75 3d 72 70 c7 bb 66 58 37 3d
       0.11386545 0.060033742 -0.0060864026 0.044762038
000050 98 80 48 3d 16 45 f0 bc 4a e0 ef 3d 81 d6 58 bd
       0.04895076 -0.029329818 0.117127016 -0.052938942
000060 ac 93 87 3d f0 01 d7 3d d3 c9 10 3d 3b 28 aa bd
       0.06619963 0.104984164 0.035348725 -0.083084546
000070 14 d7 ee 3d 80 8b ca 3d d3 67 9c bd 19 fc 8b bc
       0.11662117 0.09889889 -0.076369904 -0.017087983
000080 60 93 bf 3d 1e 49 97 bd 56 bb be bc 75 df 8f bc
       0.093542814 -0.07386993 -0.023282688 -0.017562607
000090 07 a7 53 3d df 43 1b bd 7c 85 8d bd 77 2d ef 3c
       0.05167296 -0.037906524 -0.06910226 0.029196484
0000a0 c2 33 b7 bd ad c8 81 bd 00 00 a6 bc 32 a8 50 bd
       -0.08945419 -0.06337104 -0.020263672 -0.050941654
0000b0 67 9a eb bd b0 66 6b bd 1c 48 27 bd e6 cd 33 bd
       -0.11504059 -0.057470977 -0.040840253 -0.043897532
0000c0 07 55 d5 3c 5f 32 de bd 49 14 f1 3c d3 39 9b 3d
       0.02604152 -0.10849451 0.029428618 0.075793885
0000d0 3e 23 cb bd 73 b6 e7 3c 5b f8 8a 3d b8 70 e5 3d
       -0.09918831 0.02828524 0.06785651 0.1120314
0000e0 25 37 0a bd 3a d7 d3 3d 78 bc e9 3b 66 79 6f 3d
       -0.033743996 0.103437856 0.007133063 0.058465384
0000f0 ef bf 69 3d 76 d0 f4 3d 05 31 83 bd 60 ec e0 bc
       0.057067808 0.11953823 -0.06405834 -0.027456462
